trained_models/score_mlp_spirale.pth (torch, 71276 bytes, 6 tensors)

fc1.weight f4 [128, 2]
000000 89 09 48 bf 53 67 d9 3e 58 bb cc 3d 2e 5c 5a bd
       -0.7813955 0.42461643 0.099966705 -0.053310566
000010 eb 86 4f bf ab f2 1d bf 3b 2d 16 bf 02 91 a3 be
       -0.81065243 -0.61698407 -0.58662766 -0.3194657
000020 f4 b3 4f 3f c8 64 09 bc 9a 3c f7 3e 2f 5a 74 be
       0.8113396 -0.0083858445 0.48288423 -0.23862527
000030 b8 05 89 3d 74 23 3f bf c9 0c 0a 3e 95 89 8a be
       0.06690544 -0.7466347 0.1348144 -0.27058092
000040 45 b8 33 3f 73 ae 53 be ff c8 27 3d bc 3b 56 3f
       0.7020305 -0.20672016 0.04096317 0.836849
000050 03 57 3d 3e 25 44 80 3d 9d 75 46 3e 9c e0 37 3f
       0.18490224 0.062629975 0.19380803 0.718271
000060 a1 dc 11 bf 7f af fb be 2e b2 3f 3d c5 29 86 bc
       -0.5697728 -0.4915733 0.046800785 -0.01637734
000070 0e 3d 65 3f d9 bb 0e 3d 9e 97 49 3e 28 9b 97 3e
       0.8954629 0.034847114 0.19686744 0.29610562
000080 03 f1 4b 3f ba 6a 53 3f 4e b8 b7 ba f1 05 59 3e
       0.7966463 0.82584727 -0.0014016719 0.21193673
000090 4c 58 12 bf d9 38 c2 be 39 b0 99 be df 4b a1 3d
       -0.5716598 -0.37933996 -0.3001726 0.078757994
0000a0 fa d3 88 be dd dc ce be 1f cd 77 3d 7d 9f cf bd
       -0.26724225 -0.4040288 0.060498353 -0.10137842
0000b0 60 d7 93 3c f9 2a 46 bf b3 83 27 3f a9 a5 2a bf
       0.018047035 -0.7740932 0.6543533 -0.6665903
0000c0 5c f2 53 bf ca 65 2a bf 9b 72 64 bf d2 cb 7a be
       -0.82791686 -0.6656157 -0.89237374 -0.24491814
0000d0 2c 81 e4 3e 4e 9b e8 be 33 93 c1 3e 10 23 32 bf
       0.446298 -0.45430988 0.37807617 -0.6958475
0000e0 17 e2 59 bb d0 ed 12 3d 29 af 69 be 6d 6d 29 3e
       -0.0033246332 0.035871327 -0.22820725 0.16545649
0000f0 ba 17 0b 3e fe 65 3d bf 08 88 6b be 71 36 da be
       0.1358327 -0.7398375 -0.2300111 -0.4261966
000100 62 36 c8 3e e0 4d 77 bd a4 8d 9c 39 67 a2 b0 bd
       0.3910399 -0.060377 0.0002986017 -0.08624726
000110 2a b6 5c bf 55 e0 2e 3f f9 4a 1e bd 29 69 3e 3d
       -0.8621546 0.68311054 -0.03864572 0.046487007
000120 13 52 c4 3e 3b 92 0c 3f 34 fb 95 bc 8c 6b 8a bd
       0.38343868 0.5491063 -0.01830826 -0.06758794
000130 8f 87 01 3f 66 7a 2e 3f 9b bc e7 3e 8b 2f 3a bf
       0.5059747 0.68155515 0.45261082 -0.72728795
000140 64 ac a3 be 8e 53 2c 3f bc 14 3e 3e 7d df 17 3d
       -0.3196746 0.67314994 0.18562597 0.03707837
000150 ff 50 95 3c d4 a6 3a 3b 92 56 88 3e d0 e9 32 3e
       0.018227099 0.0028480785 0.26628548 0.17472005
000160 ad f6 69 3e b8 88 8e 3e 1b 81 d3 3d f1 2b 48 3c
       0.22848006 0.27838683 0.10327359 0.012217508
000170 b4 3a da bd dd e3 22 3e eb 06 1a 3d 4c 3b 35 3f
       -0.10655728 0.15907235 0.037604254 0.70793605
000180 cf 8b 35 3f 0d aa 05 bf 4f 4b 23 3e 8e f3 c0 bc
       0.70916456 -0.522126 0.15946697 -0.023553636
000190 9b 4e 88 3e dd 42 bd be 87 61 91 be 3f ec ed 3d
       0.2662247 -0.36965075 -0.2839472 0.11617326
0001a0 f8 81 a4 3e ce 57 64 be f5 7e 27 bf 42 12 f2 be
       0.32130408 -0.2229912 -0.65428096 -0.47279555
0001b0 64 56 49 3e bf 85 47 be 77 a1 63 bf 21 34 09 3f
       0.19661862 -0.19484614 -0.8891825 0.5359517
0001c0 ef 0d 16 bf 66 7f 24 3e aa 81 9b 3d 0d 42 af bd
       -0.5861501 0.16064224 0.07593091 -0.0855752
0001d0 dc d4 5e bc db b1 3d bc bb fd d2 be 55 dc eb be
       -0.013600554 -0.011578049 -0.41209206 -0.46066537
0001e0 1b c1 e4 3e b3 da e1 3e 18 c8 6a bf f9 fc 71 3e
       0.44678578 0.44112167 -0.9171157 0.23631658
0001f0 c9 11 41 3d 97 2b 83 3f 3f b8 5e bf c6 0f e3 3c
       0.047136102 1.0247678 -0.8699989 0.027717482
000200 d0 84 80 3e 00 f0 c3 3d bc 6c 26 3f 2e 5f 1d bf
       0.25101328 0.09567261 0.65009665 -0.6147336
000210 f6 bf 8f be 70 60 33 3f 8f 81 5b 3e 5a 8b 83 bc
       -0.28076142 0.70069027 0.21436141 -0.016057659
000220 7c 11 51 3f ae 7e 7a bd a1 1c 52 3e f6 73 a5 be
       0.81667304 -0.061155967 0.20518734 -0.32315034
000230 22 94 85 be e2 3b 8c 3d eb c1 aa 3d d0 c8 0b be
       -0.2608958 0.06847359 0.08337768 -0.13650823
000240 2c ea 86 3d 85 84 80 3f e9 d0 c2 be c0 fe 50 bf
       0.065876335 1.0040442 -0.3805001 -0.8163872
000250 58 06 28 bf 37 6c 38 bd bc 49 d2 3e 32 02 54 be
       -0.6563468 -0.045025077 0.4107188 -0.20703962
000260 05 28 e8 3b ff 31 d8 3e 80 f4 0e bf 94 99 c3 be
       0.007084849 0.42225644 -0.5584183 -0.38203108
000270 01 49 2c 3f 66 ac a6 3e bf 7c 53 3e bb cf 5e bf
       0.67298895 0.32553405 0.20653056 -0.8703572
000280 be fe 41 bf 7a c8 34 3f e2 3c 73 bf 95 b7 54 bd
       -0.7577933 0.706184 -0.95014775 -0.05193289
000290 2e e1 fc bd dd 9a 88 bd 9e 29 f6 be 69 48 2b bf
       -0.12347637 -0.06670163 -0.48078626 -0.66907364
0002a0 83 2f 00 bd 94 6d 5b bd a3 36 50 be 41 04 bd 3b
       -0.03129531 -0.0535713 -0.20333342 0.0057683294
0002b0 23 e3 ba 3e 00 5d 27 3f 51 a7 66 bc d0 41 3a bd
       0.36501417 0.6537628 -0.014077977 -0.04547292
0002c0 55 58 f8 be 00 f3 24 3f db 4f 2b 3e 73 5d 37 be
       -0.48504892 0.6443329 0.16729681 -0.17906742
0002d0 63 2a 09 3f 27 fc 27 3f c8 7b d5 3e 70 4d 5e bf
       0.535803 0.6561913 0.41696 -0.8683691
0002e0 82 c6 d7 3e 13 92 fd 3e 60 ca ee 3c b7 d4 f2 be
       0.42143637 0.49525508 0.029149234 -0.47427914
0002f0 c0 c2 87 be c7 c0 0c 3f 67 b5 5c bd f7 d0 ef bd
       -0.2651577 0.54981655 -0.053883936 -0.11709779
000300 1e 2a f0 3e 6a 98 58 3f a0 8d 8a 36 02 9e 85 be
       0.46907133 0.84607565 4.129208e-06 -0.26097113
000310 cd d7 2f 3f cb 27 06 3f f7 1b 9f 3e c0 aa d7 be
       0.6868866 0.5240447 0.31076023 -0.4212246
000320 77 db 8d bd 57 ea e9 3d 44 b4 48 3f 26 45 19 bf
       -0.06926625 0.1142165 0.78400064 -0.5987114
000330 5d c7 7f 3d 94 06 d2 3d 88 3b 05 3e 3d bd 50 be
       0.062445987 0.10255161 0.1301099 -0.20384689
000340 62 c3 02 3d 66 78 0d bd ba 62 a4 3e 3a cb 97 be
       0.031924613 -0.03453865 0.32106572 -0.29647237
000350 ea 09 1f be 39 97 85 be f7 4f 35 bf 23 52 25 bf
       -0.15531126 -0.26091936 -0.7082514 -0.64578456
000360 29 91 63 3f 5c b2 b0 be 91 67 69 bf 3c 6e 0b be
       0.8889337 -0.34511077 -0.91173655 -0.1361627
000370 c4 0f 3c 3f 50 b7 27 bf 8e 77 99 be 6a 51 4e 3f
       0.73461556 -0.6551409 -0.29974025 0.8059298
000380 00 42 00 be 8a ac 55 3f e3 7e c3 3e ef 94 45 bf
       -0.12525177 0.834664 0.38182744 -0.7718038
000390 81 ca 95 3d 89 4b e5 bd 7c 3a 07 3e 55 58 f7 be
       0.07314015 -0.11196048 0.13205904 -0.4830958
0003a0 bd b6 42 3e 8e 1a 6e 3e 0a a9 0d 3e dd 92 6f 3e
       0.19015022 0.23252317 0.13834015 0.23395868
0003b0 a6 30 b6 be e7 f3 10 3f bf f1 86 be ac 55 16 3e
       -0.3558399 0.56622165 -0.26356313 0.14681119
0003c0 fe bf ee bd 8e 56 97 bd 39 7c 94 be ae 04 91 3e
       -0.11657713 -0.07389556 -0.29001024 0.28323883
0003d0 81 c4 65 3e 1f 60 59 be 56 c7 42 3d e6 54 37 be
       0.22438242 -0.21228074 0.047553383 -0.1790348
0003e0 5f f7 15 3f 9d 2e ac 3d f5 86 7c bf 80 bc 61 be
       0.58580583 0.08407328 -0.9864343 -0.22044563
0003f0 93 dd 80 bd fd 7f d4 3d 87 cb 21 bf a8 78 1d bf
       -0.06292262 0.10375974 -0.63201183 -0.6151223

fc1.bias f4 [128]
000000 01 2e 24 bd dc 3f cb 3e b9 6a 2f bf d7 bc 4c bd
       -0.040082935 0.39697158 -0.6852222 -0.04998478
000010 9c 06 2d bf 0c dd d9 3d 03 4e 55 bf 47 01 dd 3e
       -0.6758821 0.106378645 -0.8332216 0.43165037
000020 cc 81 7d be fb d9 8c 3e 4b 00 06 bf 7b 1a 71 bd
       -0.24756545 0.27510056 -0.523442 -0.058863144
000030 bb fd d8 3c 9c 12 85 be 92 80 0d bf e8 4f 2e 3f
       0.026488176 -0.2599076 -0.5527431 0.6809068
000040 83 f9 ce be ef 44 82 bc ec 39 a8 bc fb 12 05 3f
       -0.40424737 -0.01590201 -0.020535432 0.51982087
000050 03 e5 93 bd a4 81 21 be 3a 9f 8f be 19 4d 70 3d
       -0.07221415 -0.1577211 -0.28051168 0.058667276
000060 c3 e7 03 bf f6 d9 db bd c7 c0 1c 3f 49 2b 26 bf
       -0.51525515 -0.10734932 0.61231655 -0.649098
000070 04 84 c3 be 93 71 c3 bd a7 31 ac be 75 d0 76 3d
       -0.38186657 -0.09543147 -0.33631632 0.060257394
000080 e2 e8 d0 3e c8 aa fe be 37 db 6c be ac 77 49 3f
       0.40802675 -0.4973967 -0.23130499 0.7869823
000090 5a 5e 22 bf 8a 9a 03 bf c7 83 18 bf 12 6e 25 bf
       -0.6342522 -0.5140768 -0.59576076 -0.6462108
0000a0 42 41 4f bf 90 ff 12 3f ec 81 76 3e 6c 64 09 be
       -0.8095895 0.5742121 0.24072999 -0.13417214
0000b0 32 b7 d3 be 42 5e 9f 3b 02 55 e1 bd 58 4e b7 be
       -0.41350704 0.0048635313 -0.11002542 -0.3580196
0000c0 5e f8 d0 3e 63 73 c0 be c5 2a 1e 3f 5f 98 9a 3e
       0.4081449 -0.37588033 0.6178401 0.30194375
0000d0 92 66 07 bf 61 57 9f 3e 2b 86 78 be fd ec f4 be
       -0.52890885 0.31121352 -0.24269931 -0.47837058
0000e0 9d e8 33 3f d1 69 90 be d0 ce ed be 5a cd 56 bf
       0.70276815 -0.28205732 -0.46446848 -0.8390709
0000f0 73 a1 ee be 10 13 ca be 34 6b 1e be 63 8b 2e be
       -0.4660755 -0.3946767 -0.15470582 -0.1704536
000100 1a 94 52 be 59 0a 2d be 38 bc 93 be e7 91 d4 3e
       -0.20564309 -0.16898479 -0.28854537 0.41517565
000110 04 73 1a 3f c9 ea ba be 15 3c 30 3f 27 48 de 3e
       0.6033175 -0.36507252 0.6884168 0.43414423
000120 fd 73 f0 3e 94 a5 51 bf 2d fd 14 3f cc 11 fd 3e
       0.46963492 -0.8189328 0.58198816 0.4942764
000130 35 3e 27 3f c8 f0 45 bf dc f5 4a bf 33 02 19 bf
       0.65329295 -0.7732053 -0.792814 -0.5976898
000140 0f 70 4a 3e 5f 7e 27 3f 49 64 06 3f ef a7 18 bf
       0.1976931 0.654272 0.52496773 -0.59631246
000150 d3 01 6e be a2 3a 29 bf 3a 99 5f bf 55 e1 28 3f
       -0.23242883 -0.6610509 -0.8734318 0.6596883
000160 42 03 11 bf 99 b4 41 3f 29 73 08 bf 01 89 01 bf
       -0.56645596 0.75666195 -0.5330072 -0.50599676
000170 37 40 d5 be b9 f7 26 be 4d 58 8a 3e 99 21 d6 be
       -0.41650555 -0.16305436 0.27020493 -0.41822508
000180 19 a3 0d 3c 95 12 0b 3f 6e 14 43 be 18 8f 31 3f
       0.008644843 0.5432523 -0.19050762 0.6935897
000190 35 e9 70 be d7 47 25 be 18 db 61 3e 06 a8 5a 3f
       -0.23526461 -0.16140686 0.22056234 0.85412633
0001a0 2d 77 58 3f 05 ae 13 be 72 3e 17 3f 4e 55 9a bc
       0.8455685 -0.14421852 0.5907966 -0.018839505
0001b0 ab 83 29 bf e7 c0 3a be 23 36 da be c9 04 3a be
       -0.66216534 -0.18237649 -0.42619428 -0.18165888
0001c0 33 ac f0 be 7f f2 15 bf 3b b8 68 bd 4b e5 2f 3f
       -0.47006378 -0.58573145 -0.05681632 0.6870925
0001d0 62 b5 90 3c 3c 5d 05 bf 75 cb ce 3e 7e b7 d4 be
       0.017664615 -0.5209539 0.403896 -0.41546243
0001e0 b1 8f fb 3e cf 05 ac 3e 8c bb 51 3f c9 06 2a 3e
       0.49133065 0.33598182 0.819268 0.16604151
0001f0 44 75 21 bf d1 18 0f be c7 72 0b bf 50 bb 2c bf
       -0.6306956 -0.1397431 -0.5447201 -0.67473316

fc2.weight f4 [128, 128]
000000 27 56 26 3c c2 2e 69 be 4c 53 e9 3d 7c 97 e2 3d
       0.010152376 -0.22771743 0.11392841 0.110640496
000010 93 54 27 3c 30 95 b4 bd 4b 91 fe 3c ff 4d 84 bd
       0.010213035 -0.08817518 0.03107514 -0.06460189
000020 bb 8f 16 be 8b 7d dd 3c 4c 4f 20 be 48 3b 7a bd
       -0.14703266 0.027037403 -0.1565525 -0.06109169
000030 03 8e 50 bd 6c 19 42 bd 7c ec d0 3c 37 16 38 be
       -0.050916683 -0.047387525 0.02550339 -0.17977224
000040 ed b3 e9 bd 42 d6 fa bd f1 a1 c8 3d ac b3 2e 3d
       -0.11411271 -0.12247898 0.09796513 0.042651817
000050 7f 06 65 3a 37 7f de bd 6a 3b 2b bd 55 ec 8a bd
       0.0008736625 -0.10864108 -0.04180471 -0.06783358
000060 26 e6 f2 3d ef 55 a9 3c 45 12 2c bd 18 30 a0 bd
       0.118603036 0.02067086 -0.04200961 -0.07821673
000070 f0 08 b0 bd bb cc 14 bd 38 a8 a5 3b 8c 28 24 3d
       -0.08595455 -0.03632806 0.0050554536 0.04007773
000080 5e 50 3c be 58 72 10 be 8f 8c da 3c c8 c4 2d be
       -0.18390033 -0.14106119 0.026678352 -0.16969597
000090 b3 8c ca bd 29 60 1b be f4 65 e5 bd 96 07 37 bd
       -0.098901175 -0.15173401 -0.11201087 -0.04468497
0000a0 1a 73 ab 3d 3b 76 04 be 68 7e b6 bd d7 3f c9 bd
       0.08371563 -0.12935726 -0.08910829 -0.098266296
0000b0 97 72 14 be bb 66 14 be 9c 44 6d 3c 10 7d b3 bc
       -0.14496838 -0.14492314 0.01448169 -0.02191022
0000c0 93 6b 61 3a b3 83 f9 bd e0 5f 1a be d3 9a 00 bd
       0.00085990987 -0.12183323 -0.15075636 -0.031397652
0000d0 55 32 df bd 73 66 82 3d 79 35 41 bd b9 6f 0f 3e
       -0.10898272 0.06367197 -0.047170136 0.14007463
0000e0 36 c7 ac 3d 71 a1 e0 bd e6 9e cb bd 02 3d 00 3e
       0.08436434 -0.109682925 -0.09942417 0.12523273
0000f0 f3 31 a5 bb d1 b2 6a 3c 4c ba 1f ba 84 5a dc bc
       -0.005041355 0.01432486 -0.0006093129 -0.02689863
000100 c1 1d 8f bd 96 50 ce bd a8 d0 0c bd 81 e3 45 be
       -0.06988097 -0.10073964 -0.034378678 -0.19325067
000110 c5 0c 25 be b1 e0 ca bd f1 4e b6 bd e7 2d 3f bd
       -0.16118152 -0.09906138 -0.08901776 -0.046674635
000120 f6 02 44 3d fb 64 96 3d 0e 25 ad 3d 0a da 47 bd
       0.047854386 0.07343479 0.08454333 -0.048791923
000130 10 2a e6 bd dc 0b 1b b8 d4 65 c0 bd 9d a8 27 3d
       -0.112384915 -3.6965925e-05 -0.09394422 0.040932287
000140 87 73 cf 3d 60 87 6f 3d bc 85 ff bd c3 df 51 bb
       0.10129457 0.058478713 -0.1247668 -0.0032024242
000150 36 f1 0e be 92 f5 47 3d 28 03 67 bd ec 18 1a bd
       -0.13959202 0.04881818 -0.056399494 -0.037621424
000160 ee ba e9 3d eb 27 3f be af fd 2a bd 86 43 99 3d
       0.11412607 -0.18667571 -0.041745838 0.07483582
000170 b6 ed 00 bd 36 09 63 bd 2d 81 75 3c 60 00 f3 bd
       -0.0314767 -0.055428706 0.014984411 -0.11865306
000180 8e d9 55 bb 05 a2 41 bd 8d 19 e4 bc 62 a7 ce bd
       -0.0032630893 -0.047273654 -0.027844215 -0.100905195
000190 57 6f dc 3a b2 a2 e9 39 03 35 2f be 64 7d 52 be
       0.001681785 0.0004456244 -0.17110066 -0.20555645
0001a0 bc 9f 51 be 51 e6 3c be 72 a0 8a bd 56 37 12 3d
       -0.2047109 -0.18447234 -0.06768884 0.035697304
0001b0 75 2c d3 bc 3c 47 8c bc b8 5b e1 bd f0 c6 3d bd
       -0.025778035 -0.017123811 -0.11003822 -0.0463323
0001c0 9b 22 6d 3d 26 24 7b bd 90 9b a3 bd 33 df 07 be
       0.05789433 -0.06131377 -0.079886556 -0.13268737
0001d0 b6 c2 06 be 53 b3 20 be 24 e4 aa 3d 8f 11 14 bd
       -0.13160214 -0.15693407 0.083442956 -0.036149558
0001e0 1d b0 56 bd 37 d7 24 3c b6 5f 0a be 90 1f 02 be
       -0.05241405 0.010061077 -0.13513073 -0.12707353
0001f0 04 c4 0f be f4 db d5 ba a5 af 22 bd 7b 1a 72 3d
       -0.14039618 -0.0016316161 -0.03971829 0.059107285
000200 0e e6 30 bc 73 4c 2c 3b fc 61 f3 bd 27 a4 19 be
       -0.010797037 0.0026290684 -0.118839234 -0.15004025
000210 3b c9 34 bd c4 0a 89 bd 1b 3a 0d 3d 5e c3 48 3d
       -0.04413722 -0.066915065 0.03447924 0.04901444
000220 31 76 04 bd 8c 5e d9 bd b4 fa e5 bc e2 3b 70 bd
       -0.03233928 -0.106137365 -0.028073646 -0.05865086
000230 f7 df 32 bd 18 49 a6 3d 81 52 a8 bd 91 28 b6 3b
       -0.04367062 0.0811941 -0.08218861 0.005559035
000240 06 c3 81 3c 27 9a 70 3c 6b 64 65 bd 53 d4 1b bd
       0.015840065 0.01468519 -0.05600397 -0.038044285
000250 98 77 f7 3a 79 26 8a 3b 54 12 94 37 1d f1 f7 bd
       0.0018880246 0.004216012 1.765151e-05 -0.121065356
000260 7a 1b d9 bd 7e c7 1e be 49 a4 1e bd 6f 4f 09 3c
       -0.10600944 -0.15505788 -0.038730893 0.008380755
000270 b6 01 b8 bc 0d 1b 3c 3d f1 77 dd 3b 32 bb f1 bd
       -0.022461753 0.045924235 0.006758683 -0.11803283
000280 0f 6d 3c 3d cd 35 7a 3d 8c 53 0e bd 53 b2 dc bc
       0.046002444 0.061086465 -0.034747645 -0.0269405
000290 68 a4 b3 bd 4b de 86 bd 31 c3 f0 bd 73 e2 05 bd
       -0.087715924 -0.06585368 -0.1175598 -0.032686662
0002a0 a9 92 85 bd 46 b0 bd bc 36 32 15 3b 20 cc ad bd
       -0.06522114 -0.023155343 0.0022765524 -0.084861994
0002b0 de 73 90 bc ff f5 22 bd 4e 71 a0 3d 71 de f1 bd
       -0.017633375 -0.03978538 0.07834111 -0.118100055
0002c0 98 0c 31 3b 9a fe 23 3d 44 d5 1f 3d b7 bd 2e bb
       0.0027015563 0.04003773 0.039021745 -0.0026663372
0002d0 5e ce 6b 3d c4 7a 09 be e8 f8 ff 3c f0 02 7b bd
       0.057569854 -0.13425738 0.031246617 -0.0612821
0002e0 07 fb 70 bc 62 8b a1 3c ea 28 31 3c b4 f3 c1 bd
       -0.014708287 0.019719783 0.010812977 -0.09470311
0002f0 4f 1a 49 3d 37 e5 42 be 8d 54 c8 3c be 91 51 be
       0.049097355 -0.19032751 0.02445438 -0.20465752
000300 cf cd 17 3d db 31 c8 bd df 16 b1 3c 64 f6 b1 bd
       0.03706151 -0.09775134 0.021617351 -0.086895734
000310 8f 22 2d bd 2f 20 41 bc 1a 04 d0 bc c8 b5 85 bd
       -0.042269286 -0.011787458 -0.02539258 -0.06528813
000320 f6 b3 21 3d fa 70 c4 bd 38 02 4d 3b 9a 2f e2 bc
       0.039478265 -0.09591861 0.003128184 -0.027610589
000330 89 98 3b 3d f9 fa 1a be f6 82 fb bc bb 16 9a bc
       0.045799766 -0.15134801 -0.030702095 -0.018809667
000340 1b c6 e3 bd 48 ff be bd bc a7 1a 3d 4c 3a ae bd
       -0.1112177 -0.09326035 0.03775762 -0.08507213
000350 f6 96 f4 3c a2 7f 02 be a1 bd 17 bd 60 82 d3 3c
       0.02985714 -0.12744 -0.03704608 0.025819004
000360 97 21 fe bd ed 2d eb b8 69 3c 9f 3c 35 04 6c bd
       -0.124087505 -0.000112142276 0.019437985 -0.0576212
000370 5c 79 3a 3d fe bc 22 bd 18 0a 93 bd 62 97 bd 3b
       0.045525894 -0.03973102 -0.071796596 0.0057858685
000380 a5 14 e3 bd d4 0e a5 bd 69 33 bc bb 23 74 83 3d
       -0.11087922 -0.08059469 -0.0057434333 0.06418636
000390 6d 1b f0 bc 05 88 f2 bd 43 b9 9b bd 2c 98 29 bd
       -0.029309953 -0.1184235 -0.07603695 -0.041404888
0003a0 11 e4 66 bd 9c 3e 0e 3d e9 31 42 bd af fd 68 bd
       -0.056369845 0.034727678 -0.04741088 -0.056882557
0003b0 ef 81 da bd aa eb 4f be cf 5d f7 bc c6 06 2a bc
       -0.10669314 -0.20304742 -0.030196099 -0.0103775915
0003c0 34 7f 8d bd c3 5c d7 bc 51 2d aa bd 33 85 be bc
       -0.06909028 -0.02628935 -0.08309425 -0.023256874
0003d0 24 5e d2 3c 19 cf 7c 3d d2 10 2b 3d 90 f9 57 3c
       0.025679655 0.06172094 0.041764088 0.013182059
0003e0 4e 2c ea bb 3e 1d ed bc 8b 16 8e 3d f8 70 53 bd
       -0.007146395 -0.028944608 0.069378935 -0.051621407
0003f0 71 8d d1 bd 48 4d 6a be a6 6f e5 bc 43 8a 0f bd
       -0.10232056 -0.22881043 -0.02800734 -0.035043966

fc2.bias f4 [128]
000000 6f 6c 13 be 9d 9a 90 3c 37 54 ff bd ab dd d2 bd
       -0.14396833 0.01765185 -0.124672346 -0.10296186
000010 1a 23 93 bd 1b cc 66 3e 03 22 a5 bd b0 0a d0 3d
       -0.071844295 0.22538798 -0.08063128 0.101582885
000020 73 62 7e bd 2b 2f 5a 3d 94 54 0f 3d 47 cb de 3c
       -0.062105607 0.05326764 0.03499277 0.02719654
000030 73 96 1d be ef d3 cc bd b4 bc 5b bd 0e 7b 30 3d
       -0.15389423 -0.100013606 -0.05364676 0.043086104
000040 fe 89 c6 bd 51 fe ae bd 41 da f2 bd 34 3b 2b bd
       -0.09694289 -0.08544601 -0.11858035 -0.041804507
000050 e3 08 db 3d 06 f4 84 3d a2 0a b2 bd cf 54 d5 bc
       0.106950544 0.06491856 -0.08693434 -0.026041416
000060 de ec f2 3d 3f 0a 07 3d 79 16 d6 3d f1 a1 be 3d
       0.11861585 0.032968756 0.10453505 0.093082316
000070 a1 23 65 3d 9e c2 4e bd 0f 8d e2 bb 16 d5 b4 bd
       0.05594218 -0.05047857 -0.006913788 -0.088297054
000080 10 b8 74 3e ab 58 da bd 8f 3d 0f 3e a7 06 30 be
       0.2389834 -0.10661443 0.13988326 -0.17190038
000090 25 da d5 3b 48 b7 aa bd 0e 8f a3 ba a3 93 05 3d
       0.006526249 -0.083357394 -0.0012478547 0.0326115
0000a0 46 75 b2 3d ae 49 2b be ea c1 9d 3d 42 84 0d be
       0.087137744 -0.16727325 0.07703002 -0.13819984
0000b0 45 f0 64 3e 89 4e 3a bd c5 59 38 be e2 33 64 3c
       0.2235728 -0.045485053 -0.18002994 0.013928385
0000c0 05 23 07 be fe fc 29 be fc 97 19 be 22 c1 cd bd
       -0.13196953 -0.16600415 -0.14999384 -0.10046603
0000d0 17 97 95 bd b5 56 bd 3c 8f ce 2d bd 96 cf 88 3d
       -0.07304209 0.023112634 -0.042433318 0.06680219
0000e0 50 34 06 be 5a 2b 08 be 84 ab fa bd 92 39 77 bd
       -0.13105893 -0.13297787 -0.12239745 -0.060357638
0000f0 b1 ab e8 bd ec 0d 0d bd 06 2b dc bd 1a c3 80 3e
       -0.113608725 -0.034437105 -0.107503936 0.2514885
000100 bf 33 96 bd 40 07 b2 3d 6d 64 38 be f3 5f f9 bd
       -0.073340885 0.08692789 -0.1800706 -0.12176504
000110 75 89 0d 3d 30 51 fb bd 6f 69 62 3d 0b 2d 78 bd
       0.034554917 -0.12271345 0.05527633 -0.06058983
000120 1f 86 c6 bd 20 d0 8e bd 3c 2c 2b 3d 33 0b 33 bd
       -0.0969355 -0.069732904 0.041790232 -0.043711852
000130 96 55 05 3e 89 a5 7c 3c 01 13 2f bc 04 77 17 be
       0.1302093 0.015420326 -0.010685683 -0.14791495
000140 2f 98 1f 3c ec 5e 43 3e 77 dd d9 3d ad 4c 9a bc
       0.009740873 0.19079179 0.10637944 -0.01883539
000150 0b 70 a5 3c 0c b0 ba 3d 68 51 26 be bb d6 b3 3c
       0.020195028 0.091156095 -0.16241992 0.021952977
000160 e2 71 34 3e e8 db 82 3d 02 30 a9 bd 89 28 f3 bc
       0.17621568 0.063896 -0.0826111 -0.029682415
000170 7f 84 a0 bd ad ee 8c 3d 3e f6 99 bc 04 db 68 3c
       -0.078377716 0.06881461 -0.018794175 0.014212374
000180 53 7c 4b 3e 05 ca 3e 3d 86 04 fc bd ce 2c 5e be
       0.19871645 0.04657938 -0.1230555 -0.21696779
000190 e1 af ec bd cb 8c b3 3c 48 72 d8 bd 59 af 7c bd
       -0.11556984 0.021917721 -0.105686724 -0.061690662
0001a0 95 41 60 bd e0 4c 65 bd 75 11 37 3d 2a 6e 4d bd
       -0.054750044 -0.055981517 0.044694383 -0.05015389
0001b0 81 f0 78 bd 2c b8 aa bd ee 30 9d bd cd 11 76 3e
       -0.060776237 -0.08335909 -0.07675348 0.24030228
0001c0 52 94 1d 3e 57 1f da bd 0a 9d 59 3d 75 c1 31 bd
       0.15388611 -0.10650509 0.05312828 -0.043397386
0001d0 17 2a 32 3d 24 63 30 be 48 7e cf 3c 89 08 0b 3d
       0.04349717 -0.17225319 0.02532877 0.033943687
0001e0 54 35 4e bd 21 b7 ad 3d 90 10 db bd 08 79 c7 bd
       -0.050343826 0.08482195 -0.106965184 -0.09739882
0001f0 f1 b9 1a bd a9 68 45 bd 8b ec 36 bd 17 6e 6c bc
       -0.037774984 -0.048195515 -0.04465918 -0.014430544

fc3.weight f4 [2, 128]
000000 e0 0a 96 3d 65 2f a2 3d 9a a9 09 3c a7 41 59 3d
       0.07326293 0.07919196 0.008402253 0.053041127
000010 44 9d 03 3d 6d 7f 11 3e 72 db 97 3d 96 96 43 3d
       0.032132402 0.14208765 0.07414903 0.04775103
000020 fb 8f 36 3c fb 0a 17 be 4a ae f6 3d f0 63 fb 3d
       0.011142726 -0.14750282 0.12044962 0.12274921
000030 21 19 5d 3a 23 a4 53 3d f4 42 9e bc 45 1a d9 bd
       0.00084342255 0.051670205 -0.019319035 -0.10600714
000040 dd 7a 83 bd b8 49 07 bd 6e ab 8f 3c e6 de 94 bc
       -0.06419919 -0.033029288 0.017537799 -0.018172693
000050 5c 0f 0a be f2 60 05 3e c2 a1 84 3c 06 7a 7a bd
       -0.13482422 0.13025263 0.016190413 -0.061151527
000060 d9 69 e2 3d 39 2f c0 3d 17 0f 9d bd 42 eb 90 3d
       0.11055345 0.09384007 -0.07668894 0.07076122
000070 76 e2 51 3c 92 48 a1 bd e2 50 24 bc b3 c7 50 3d
       0.01281034 -0.0787517 -0.01002905 0.050971698
000080 c3 b1 97 3e 3b 11 4d bd 4b 80 5f be 3a 95 46 bd
       0.2962781 -0.05006526 -0.21826284 -0.048482157
000090 97 55 73 bc 79 84 34 3d 14 ef 5d bc bb 77 bb 3d
       -0.014851949 0.04407165 -0.01354577 0.09153696
0000a0 f1 e4 58 3d af b6 ac bb 27 9d c9 bd a6 4d ac 3a
       0.05295271 -0.005270801 -0.098444276 0.00131457
0000b0 20 8f e6 bd 5b 9c 4f 3c 09 50 81 bd 2c 7a d6 bc
       -0.11257768 0.012671555 -0.063140936 -0.026181303
0000c0 75 cb fc bb 04 a1 3c 3b b6 06 58 3d d0 e6 af bd
       -0.0077146837 0.0028782496 0.052740775 -0.08588946
0000d0 bf 7f 8f bd 52 21 1e 3e cd 5f 80 3d ac 98 91 3d
       -0.070067875 0.15442398 0.062682725 0.07109198
0000e0 12 5b 2d 3b b2 02 9e 3d 93 28 60 3d c9 9c 46 3d
       0.0026451987 0.07715358 0.054726195 0.048489366
0000f0 1b 50 aa 3c 30 10 ff 3c cd 3b 18 bd d0 f8 76 3e
       0.02079015 0.031135648 -0.037166405 0.24118352
000100 95 00 a1 bd f6 ba 04 3e b9 a4 30 bd 34 6e 27 3c
       -0.07861439 0.12961945 -0.04312584 0.010219146
000110 30 53 59 be fb 8b 96 3b a3 57 9f 3a 2c ad 58 bb
       -0.2122314 0.0045943237 0.0012156855 -0.0033062203
000120 75 51 0c 3d 63 f3 5e 3d 0d da c2 3d 92 f1 1c bc
       0.03425737 0.05443133 0.09514246 -0.009579079
000130 4e 3f 3b 3d 19 3d ad ba ad 1f 06 3e be 38 f0 3c
       0.04571467 -0.0013217061 0.13098021 0.029323932
000140 40 68 81 bc 3d 1f 7e be 6d 58 1a 3d 67 95 0e 3c
       -0.01579678 -0.24816604 0.037681986 0.0087026125
000150 4a f9 3c bd 01 4d ba 3c 11 2f f1 bc 3e 5d 83 bd
       -0.046136178 0.022741796 -0.029441388 -0.06414269
000160 16 40 2f 3e b9 4c cf bc 96 12 93 bc a7 eb 2c bd
       0.1711429 -0.025305139 -0.017953198 -0.042216923
000170 b2 8a 50 bc 94 ce 9b 3d 90 26 d9 3d b5 0f a9 3c
       -0.01272838 0.07607761 0.10603058 0.020637373
000180 30 23 0b 3e 17 d5 c2 bc c9 86 d9 bc 21 c1 94 bb
       0.13587642 -0.02378325 -0.026553528 -0.0045396243
000190 be 54 61 bc e0 1d 1d 3d 48 e3 11 bc 3c e6 99 bd
       -0.013753114 0.03835857 -0.008904286 -0.07514617
0001a0 46 1b 5f b9 7f 4a b6 bd df 5e 27 3d 8a 4c bf 3c
       -0.00021277097 -0.08900928 0.04086196 0.023351926
0001b0 01 32 0f bd 30 23 1e 3d 24 bb b0 bd 3b 84 95 be
       -0.034959797 0.038607776 -0.08629444 -0.29202446
0001c0 cd 2a 34 be 8a 9d 3b bc ac fe 73 bd 14 e7 86 3c
       -0.17594452 -0.011451134 -0.059569046 0.016467609
0001d0 fa 06 8a bc a1 f4 9d 3d e2 ac fa bc 40 b4 98 bd
       -0.01684903 0.07712675 -0.030600015 -0.07456255
0001e0 ec cf a6 3c 1e 88 25 3e 9b 40 89 3d 45 75 80 bd
       0.020362817 0.16165206 0.06701776 -0.062723674
0001f0 19 de db bd 1b 0e 35 bd 18 99 9b bd 47 a8 77 bd
       -0.10735721 -0.044202905 -0.0759756 -0.060463216
000200 0d 1a c4 bc b9 76 31 3d 32 13 9c bc 9f 3d 2c 3c
       -0.023938203 0.043326113 -0.019052122 0.0105127385
000210 73 09 96 3d 05 87 14 3e b6 b4 6d 3d d7 05 03 3e
       0.07326021 0.14504631 0.058033668 0.12795196
000220 7f 03 8d bc cd 1c b2 3d ee 7f 9d 3c cc e9 e5 bd
       -0.017213581 0.086968996 0.01922604 -0.11226234
000230 75 36 60 3b 24 8c 2e bd 1e 38 13 3d 68 09 04 3d
       0.0034212146 -0.042614117 0.03594219 0.032235533
000240 71 a4 75 3d fb 10 2d bd dd 30 8c 3d 68 50 58 bc
       0.059971277 -0.042252522 0.068452574 -0.013202764
000250 c1 f7 00 3e 9d 65 aa bd 61 d5 c0 bb aa b2 6c 3d
       0.1259451 -0.083201624 -0.0058848117 0.057787575
000260 15 c5 d2 3c e5 06 02 3d 18 33 10 be ed c9 e2 bd
       0.025728742 0.031744856 -0.1408199 -0.110736705
000270 de 1d e0 bd 3a 80 b2 3b 82 61 5d 3c 52 f7 52 bd
       -0.10943197 0.0054474147 0.013512017 -0.051505394
000280 33 ef 8c 3e c1 27 99 3d 08 a8 69 be 03 b1 89 3d
       0.27526245 0.074782856 -0.22818005 0.067232154
000290 5b 53 8e 3c 13 e0 36 3d 3c 00 37 3c b9 5e ce 3d
       0.017373731 0.044647288 0.0111694895 0.10076661
0002a0 b3 73 ef 3c 02 73 75 3d 38 b8 d2 3d d1 45 93 bc
       0.029229974 0.059924133 0.10289043 -0.017977627
0002b0 77 2b 49 be e5 ca 8f bc 34 eb 74 3c 8b 81 dd 3c
       -0.19645487 -0.017552802 0.014948655 0.02703931
0002c0 c8 35 bb 3b 2c ff 83 bb 73 0f 63 3d 5f 18 19 bd
       0.0057131983 -0.0040282216 0.055434655 -0.037376758
0002d0 bf 89 91 bd 4b 02 63 bb 79 c6 0d bd 03 b8 a4 bd
       -0.07106351 -0.0034638818 -0.034613106 -0.0804291
0002e0 f2 83 3b bb fb 13 48 3d 86 4e 3f bd 3c 3b 49 3d
       -0.002861258 0.04884718 -0.046705745 0.049128756
0002f0 52 a1 85 bc 8e b4 81 bd dc 45 39 3d af bb 9c 3e
       -0.016312275 -0.06333266 0.04523264 0.3061194
000300 5a a2 cc bd 87 c9 ab 3d ad ba df 3b 60 a5 d8 bd
       -0.099919036 0.08388048 0.0068276734 -0.10578418
000310 5f 45 d3 bd 41 d4 c0 3b 90 9a 4f bd 2b 09 ac 3d
       -0.10315966 0.0058846776 -0.05068451 0.08400186
000320 1b c6 54 bc 71 ad 94 3c f8 8a 95 bd 04 da 0b bc
       -0.012986685 0.01814911 -0.07301897 -0.008535866
000330 b9 01 34 3e 6d dc 2c 3d 50 2e bd 3d e2 66 08 bd
       0.17578782 0.042202402 0.09237349 -0.03330124
000340 1f 55 d3 3b 80 19 61 be 83 14 b7 3d b1 4d a6 bd
       0.006449356 -0.21982384 0.08939459 -0.08120287
000350 2e 8f f0 bd 42 35 1f bd af c2 3e bc 00 a2 85 3d
       -0.11746059 -0.03886915 -0.011643096 0.0652504
000360 74 c3 0d 3d 96 ef 39 be d9 90 08 3d da 14 48 3b
       0.034610227 -0.18157801 0.033341262 0.0030530007
000370 19 25 55 3c a7 c5 9d 3c cb 84 c0 3d 02 a4 df 3d
       0.013009333 0.019259287 0.09400328 0.10919954
000380 a6 3d 37 3e 26 40 5d bc 2c 49 35 3d dc b0 9d bc
       0.17894611 -0.013504064 0.044259235 -0.019249372
000390 27 66 1c 3c 8c db ae bd 44 be 27 bd 9c 59 ba bb
       0.009545839 -0.08537969 -0.040952936 -0.005686952
0003a0 6d d2 37 3c ed 41 40 bd b5 3c eb 3d d6 a2 de bc
       0.011219603 -0.04693787 0.11486188 -0.027177256
0003b0 1d 53 bb bd 66 3a 2d 3d a0 30 c7 bd 89 d1 95 be
       -0.09146712 0.04229202 -0.09726071 -0.29261425
0003c0 05 98 53 be a5 70 d5 bc 5f e1 04 3b 04 56 2a bc
       -0.2066346 -0.02605469 0.0020275933 -0.010396484
0003d0 fb b2 0e 3d cd ec 9b 3d 3c 20 0f 3d 88 f9 47 3c
       0.034838658 0.076135255 0.03494285 0.012205489
0003e0 27 61 80 3d ee a8 20 3e 93 fc 60 bd e0 b0 86 3d
       0.0626853 0.15689442 -0.054928374 0.06576705
0003f0 6a 53 93 bd d6 7a ab bd 93 3d 28 bd 30 8b 91 3d
       -0.07193644 -0.083730385 -0.041074347 0.07106626

fc3.bias f4 [2]
000000 c5 cd 7c bd 3a 9c de 3b
       -0.061719675 0.006793526
