trained_models/score_mlp.pth (torch, 72284 bytes, 6 tensors)

weight f4 [128, 2]
000000 7b a2 8f be a8 cd 23 bf 3d 0b d5 3e 41 49 e8 be
       -0.2805365 -0.6398568 0.41610137 -0.45368388
000010 97 34 09 3e 8e 20 af 3e 1b 6c 3f be 15 8c 35 3e
       0.13398968 0.34204525 -0.18693583 0.17729218
000020 9a 97 dc 3d 40 4a 18 be c2 8e 16 3f d6 81 58 be
       0.10771103 -0.14872074 0.5881158 -0.21143278
000030 d3 41 d0 bd aa 2e 28 3e 25 70 84 3e c1 9c da be
       -0.10168805 0.16424051 0.2586681 -0.4269772
000040 ee 49 90 be 91 16 85 3e 03 7c b9 3e 3c 4b 00 bf
       -0.28181404 0.2599378 0.36227426 -0.501148
000050 47 42 28 be fe b8 1e 3e 7e 07 a5 3e ab be 9a be
       -0.16431533 0.15500256 0.3223228 -0.30223593
000060 1a 91 36 3e 8f 7c a4 be ae 11 96 3e 17 47 d9 be
       0.1782879 -0.3212628 0.29310364 -0.4243705
000070 60 a9 29 bf ed 61 ce be 29 9e 93 be c3 2a 1b 3c
       -0.6627407 -0.40309086 -0.28831604 0.009470644
000080 14 8e 41 bf 68 42 33 bf a5 b8 4f 3e ea 66 15 be
       -0.7560742 -0.700232 0.2028528 -0.1459004
000090 e5 41 c0 3e 11 24 1d 3f d5 20 44 3e d2 8a 84 be
       0.37550274 0.6138316 0.1915315 -0.25887161
0000a0 e7 d0 9c 3e 66 7b 05 3f 22 30 d8 3e 7c d6 22 bd
       0.3062813 0.52141416 0.42224222 -0.03975533
0000b0 8b e4 21 bf 21 c2 bd bd 7a 6d 5e be 92 66 ab 3d
       -0.63239354 -0.09265543 -0.2172145 0.08369173
0000c0 3d 4e f4 3e f9 54 a2 3e ef de 54 3e 59 0d 37 be
       0.4771594 0.31705454 0.20788167 -0.17876185
0000d0 45 3a e0 3e 4f 26 21 3f 9e 5f 2c 3f 91 07 08 bf
       0.43794456 0.6294908 0.673334 -0.53136545
0000e0 89 ce 08 3f a0 bb 86 be 62 6e 1e bf 1f df 8a be
       0.5344015 -0.26315022 -0.6188718 -0.27123353
0000f0 28 3f f7 be 1e 26 89 3e 87 0f 18 bf 24 c0 f7 be
       -0.48290372 0.26786894 -0.5939869 -0.4838878
000100 18 53 e0 be 33 9e 88 3e 8c 39 23 bf 65 24 1f 3f
       -0.43813396 0.26683196 -0.63759685 0.6216491
000110 96 41 9a 3e 18 fd ef be b6 43 cc 3c 5b 5f 8e bc
       0.30128163 -0.46872783 0.02493463 -0.017379453
000120 e0 d3 32 bf 01 d6 4b be 6d 69 c6 3d b9 c6 e6 bd
       -0.69854546 -0.19905855 0.09688077 -0.11268372
000130 0a 1c 91 3e ac 1d 94 be 4b 58 3d be 57 61 8e 3e
       0.28341705 -0.28928888 -0.18490712 0.2780864
000140 7b ba 31 bf b7 e6 a8 be 61 e0 f3 3e 94 77 12 bf
       -0.6942517 -0.3298852 0.47632125 -0.5721371
000150 0e 05 08 3f 2f 50 0c 3f 1a 08 c7 be e4 17 3a be
       0.5313271 0.5480985 -0.38873369 -0.18173176
000160 41 13 0b 3f fd 7d 04 bf 04 be c9 be 08 6a 63 bd
       0.54326254 -0.5175474 -0.39402783 -0.05552104
000170 26 10 27 bf 60 2e 48 be 4f ec ed 3d 18 f9 2c bd
       -0.65259016 -0.1954894 0.11617338 -0.04222974
000180 e6 f7 27 3f 89 c5 de 3c 6e d6 1d bf 43 b1 60 be
       0.6561264 0.027193801 -0.6165532 -0.2194262
000190 10 70 c9 3e dc 66 12 3f 07 ec a1 be b7 6d db 3e
       0.3934331 0.571882 -0.31625387 0.42857143
0001a0 28 cb c5 3c 99 4c db 3e 44 7a 0b be bb c9 b3 3c
       0.024144724 0.42831877 -0.1362086 0.021946779
0001b0 0c 6c 10 3f 1e f0 8f 3e e4 34 ef be 6e cb 88 be
       0.56414866 0.28112882 -0.4672004 -0.26717705
0001c0 dc 7a 65 be 05 99 74 3e f5 1a e0 3d c9 2e b5 3e
       -0.22410148 0.23886497 0.10942642 0.35387257
0001d0 cc 5d b2 3e 0e e9 e7 be cc ce 0c bf b4 e2 25 3f
       0.34837186 -0.45294994 -0.55003047 0.64799047
0001e0 ca e9 48 be d5 04 73 3e f0 d7 9a bd dd 83 e1 be
       -0.19620433 0.23732312 -0.07560718 -0.44045916
0001f0 1b ef ba be 35 6d ff 3e 8a 4b 3e be f9 d5 0d bf
       -0.36510548 0.49888006 -0.18583503 -0.5540462
000200 e1 b4 ac bd 27 47 4b 3e e1 48 80 3e 45 77 90 be
       -0.084329374 0.19851361 0.25055602 -0.28215995
000210 5f 90 0f 3e 58 60 00 be f4 8c 0b 3e e0 b5 2b be
       0.14019917 -0.12536752 0.13627988 -0.16768599
000220 48 f8 71 bd ad 24 25 3e 31 2e 1a 3f e7 c5 80 3e
       -0.05907467 0.16127272 0.6022673 0.25150988
000230 4c 01 e7 be f4 f4 74 3e a2 32 c7 be 4f b9 80 be
       -0.45118177 0.23921567 -0.38905817 -0.2514138
000240 4d ba 24 3f 6e e1 de be 61 5b 38 bf 67 4c 25 3f
       0.6434677 -0.43531364 -0.72014433 0.64569706
000250 56 e0 8b bd da ed 10 bf d4 d7 4b 3e 57 c4 85 be
       -0.06829898 -0.5661293 0.1990655 -0.26126358
000260 19 27 03 3e fa 70 03 3f 03 73 30 3f 15 65 07 3f
       0.12807883 0.51344264 0.68925494 0.52888614
000270 c4 c9 e6 bd 03 50 2c 3e 8b ff 2f bd e5 4b 39 3d
       -0.112689525 0.16827397 -0.042968314 0.045238394
000280 49 43 33 3e b2 f3 29 3f a0 da 1d bd c1 2c 90 be
       0.17506136 0.66387475 -0.038538575 -0.28159145
000290 d3 37 88 3e 37 ae 26 be 73 f2 88 3c 8b c6 7b 3d
       0.2660509 -0.16277395 0.016717171 0.061468642
0002a0 57 de b7 3c 90 3d 33 bf ec 8b b2 bd 3c 3e 7c 3d
       0.022444887 -0.7001581 -0.08718094 0.06158279
0002b0 32 52 16 be 58 a5 76 bd 1f 42 23 3f 0b 24 18 be
       -0.14679793 -0.060216278 0.6377277 -0.148575
0002c0 c7 61 fc bd 8b ac 76 3e d4 00 99 3e fd 2a 41 be
       -0.12323337 0.24089257 0.29883444 -0.18864055
0002d0 2a a0 20 be f0 8b c1 be 7a fe ed 3e a7 d1 13 3f
       -0.15686098 -0.37802076 0.46483213 0.5774178
0002e0 ee ed 05 3d 7b ef 1f bf 37 12 9f 3e 20 99 bb 3e
       0.03269761 -0.62474793 0.31068584 0.36640263
0002f0 79 86 9a 3d b4 9c 3b bd 80 82 0c 3e 9e c8 ba bd
       0.0754518 -0.04580374 0.13721657 -0.09120296
000300 7e 5d 85 3e aa 4a 15 3f 1c ec cf 3d d3 eb 29 be
       0.2604789 0.58317053 0.10152456 -0.16593866
000310 3f 2f b0 3e 97 8f c0 be cd 34 76 3e b4 4c 9b bc
       0.34411046 -0.3760955 0.2404358 -0.018957473
000320 d4 0c 25 3f 68 2c 02 bf 8a 26 02 3e 0b 78 2d be
       0.644727 -0.5084901 0.12710014 -0.16940324
000330 23 ae c1 be 3e c8 00 3f c4 1c 3e 3d 17 20 d8 3e
       -0.37828168 0.50305545 0.04641415 0.42211983
000340 b4 90 c3 be 21 8b 26 bf ee a6 87 3e 66 eb b1 3e
       -0.38196337 -0.65056044 0.26494545 0.34749907
000350 c6 e5 f6 be df dd c5 bc 02 ec c4 3e bf 7e 93 be
       -0.48222178 -0.024153648 0.3846131 -0.28807637
000360 41 26 e9 be 0f ba 18 3f 8e 27 d8 be 3c 53 b5 3e
       -0.45536998 0.596589 -0.42217678 0.35415065
000370 0a f9 c4 3d 12 3d 02 3f 27 dc 18 3d fa 58 7b 3e
       0.09617813 0.50874436 0.03731933 0.2454566
000380 77 20 a2 3d 2a 4c 1d be 9a 6b 0f bf 80 2c fc be
       0.079163484 -0.15361086 -0.5602356 -0.492527
000390 98 fd 9a 3e f1 75 23 bf 59 25 4f 3e 18 4a 8a be
       0.30271602 -0.6385184 0.20229091 -0.27009654
0003a0 65 4b b2 be 78 fa 7d 3e 27 51 d1 be b4 8f 77 be
       -0.34823146 0.24802577 -0.40882227 -0.24175912
0003b0 cc 0c 74 3e a7 5f e2 be e6 d3 0e bf 33 91 d3 3e
       0.23833007 -0.44213602 -0.5579208 0.41321716
0003c0 7e ba 16 3f 59 cf 3f 3e 32 1b a4 be f0 f9 e3 be
       0.58878314 0.1873144 -0.32051998 -0.44526625
0003d0 8f 06 80 3e 28 09 e5 be 00 5e c1 be c1 0d ab be
       0.25005004 -0.44733548 -0.3776703 -0.3340893
0003e0 c7 30 c0 3e 8e 6e e6 3e 78 be d3 3e 0b 87 ea be
       0.37537214 0.45006222 0.41356254 -0.45806155
0003f0 1e 67 da 3e e9 dd ff be d4 33 c0 bd 11 da 2e 3e
       0.42656797 -0.49973992 -0.093848854 0.17075373

bias f4 [128]
000000 a8 9c 68 bf ea e0 37 3f 64 e7 d1 be 7f b7 15 3c
       -0.9086404 0.71827567 -0.4099685 0.009137987
000010 ed a7 5c 3e 22 f7 27 3f af 9f 3f 3e 0f 01 55 3f
       0.21548434 0.6561147 0.18713258 0.8320474
000020 ad 33 6a 3e 14 9f 2f bf 4f 4e ef 3d e2 5f 74 3e
       0.22871275 -0.6860211 0.11684858 0.23864701
000030 13 fa 38 3e 4d 0d b4 bc 8e 58 2d 3f cd 00 b0 bd
       0.18064146 -0.021978999 0.6771325 -0.08593903
000040 51 31 88 be 9a a4 21 bf ab f1 02 bf ce 91 2b 3f
       -0.26600125 -0.6314179 -0.51150006 0.67019355
000050 aa cd 9d be f3 5f 2c bf ff aa 33 3e 2d 63 18 3f
       -0.30820972 -0.67333907 0.17545699 0.5952633
000060 ec d6 4c 3e dd 30 df bd e0 b4 00 3f 67 37 3a bf
       0.20003861 -0.10897992 0.50275993 -0.7274079
000070 f3 14 c6 be 62 af 0e 3f 68 77 49 3f 32 5a b8 3e
       -0.38687858 0.5573636 0.78697824 0.36006314
000080 7c 1d 05 bd a9 49 df be a6 3a 8d bd 2e dd 8f 3e
       -0.03249882 -0.43610886 -0.06895952 0.28098434
000090 e7 dc 98 bc 7c f3 05 bf 38 f5 60 be 85 00 f2 bd
       -0.018660022 -0.5232465 -0.21968544 -0.11816505
0000a0 c0 99 8e bd 50 76 e2 3d 52 65 1f 3e c1 87 a7 be
       -0.06962919 0.110577226 0.15565994 -0.3272076
0000b0 7d 3f 0b be 90 b0 ba bd e1 b2 47 bf 7b b9 30 3f
       -0.13598438 -0.09115708 -0.7800732 0.6903302
0000c0 e3 8e 15 bf 28 de 0c 3f 6b f5 83 3d d4 ec 27 3f
       -0.5842115 0.55026484 0.06443294 0.65595746
0000d0 73 3f 89 be a0 d6 9c be 48 8e 94 be c5 a7 6d bf
       -0.2680622 -0.30632496 -0.29014802 -0.9283412
0000e0 34 36 4e 3d 6a ca 17 bf f7 c5 24 bf a7 2d 29 3f
       0.05034466 -0.59293234 -0.6436457 0.66085285
0000f0 81 28 3c bf b0 47 f4 be 57 8e 12 3e 91 21 47 bf
       -0.73499304 -0.47710943 0.14312111 -0.77785593
000100 fc fc 3c bf 36 4a a8 be eb b9 26 bf 3f 3b b1 be
       -0.73823524 -0.32869118 -0.6512744 -0.34615514
000110 7c c3 67 3a f4 60 18 be 38 b3 18 bf 65 e8 a1 be
       0.000884108 -0.14880735 -0.59648466 -0.31622615
000120 df 24 1e bf ff a4 fe be c6 f7 71 3c 9a 6f fc be
       -0.6177501 -0.49735257 0.014768546 -0.49303895
000130 7a 26 9a 3c 95 a4 23 bf d8 18 42 be 6f 84 17 bf
       0.018817175 -0.6392301 -0.1895479 -0.5918645
000140 79 35 26 be 3e c9 21 3f 2f 79 fc 3e 28 8e 16 bf
       -0.16231336 0.63197696 0.49311206 -0.58810663
000150 eb 9a 58 bf 05 36 14 3f e4 c1 26 3d 60 78 15 bf
       -0.84611386 0.5789493 0.040712252 -0.583868
000160 9e 28 27 3f 61 83 fc 3e 55 9f 5f 3e bb 29 e8 be
       0.6529635 0.49318984 0.21838124 -0.45344338
000170 32 bb c0 3d 8b 37 43 bf 2f 7f 95 3e 7a 33 79 be
       0.09410705 -0.76256627 0.29198596 -0.24336043
000180 b8 fd 1e bf 09 75 40 3e 4a 2d 24 bf 8b 85 25 bf
       -0.62105894 0.18794645 -0.64131606 -0.64656895
000190 28 dd 34 bf bb 7b 87 be 94 0d b5 be 2d 62 b4 be
       -0.7064996 -0.26461586 -0.35361922 -0.35231152
0001a0 0e 73 56 bf 46 c2 d8 be a6 88 14 3f d8 f0 96 3e
       -0.8376931 -0.4233572 0.5802101 0.29480624
0001b0 27 2c bb be fe 71 00 3e 40 4e 17 bf 3a 6a 20 be
       -0.36557123 0.12543485 -0.59103775 -0.15665522
0001c0 e1 b0 5e 3e 53 77 e5 be 2c de 2e bf aa 5f 50 bd
       0.21747161 -0.448176 -0.6830776 -0.050872482
0001d0 09 e8 1f bf 17 7c 3f bf 15 7a 03 bf 9a 76 3f 3f
       -0.6246343 -0.7479872 -0.5135816 0.74790347
0001e0 5d 96 fa be b1 62 14 bf ff 0c 3a bf eb 6a 1f bf
       -0.48942843 -0.5796309 -0.7267608 -0.6227252
0001f0 2b 29 14 bf 42 dc 23 3f ec 52 2b bf a3 1d 05 3f
       -0.5787532 0.6400796 -0.66923404 0.5199835

weight f4 [128, 128]
000000 f5 20 ef bd 08 c9 e5 bd cd e0 ff bb 62 02 ca bc
       -0.11676208 -0.11219984 -0.0078087808 -0.02465934
000010 3e 56 98 bd 9f 9b 71 3d 86 ff 6e 3d 99 8e e3 bd
       -0.074383244 0.058986302 0.058349155 -0.11111183
000020 99 10 33 3d ca 7c 3a bb c7 f1 21 bb 93 ce dd 3c
       0.043717 -0.0028455728 -0.002471076 0.027076041
000030 fd b2 39 3b 3e aa c4 bb 22 fc 31 be 00 7c 29 3d
       0.0028335445 -0.0060017398 -0.17381337 0.04137802
000040 aa 5b 0e be 48 d8 9d bd 89 db 43 bd fc 96 aa bd
       -0.13902155 -0.07707268 -0.047816787 -0.08329579
000050 20 a4 99 bc a8 19 44 bd ff 82 33 bd 0f f1 dc 3d
       -0.018755019 -0.04787603 -0.0438261 0.10788166
000060 31 68 75 3d cd af a1 bd 2c 92 98 bd ee e6 31 bd
       0.059913818 -0.078948595 -0.07449755 -0.043433122
000070 30 08 53 3d 14 8e a3 bd d1 84 93 3d bf f8 d0 bd
       0.05152148 -0.079860836 0.07203067 -0.102036946
000080 fd 64 5b bd c2 20 4a bd 26 88 11 be 06 76 51 3c
       -0.053563107 -0.049347647 -0.14212093 0.012784487
000090 6b fa 24 bc ad 65 c5 bc 9f 51 27 bd 2a c2 57 bd
       -0.01006947 -0.024096334 -0.040849324 -0.052675404
0000a0 57 ad 71 bd 33 63 a6 bd 18 4e 9b bd cf a9 fd 3c
       -0.0590032 -0.081243895 -0.075832546 0.03096476
0000b0 87 63 aa bc 34 7f e1 b8 ee a6 b1 bc e2 a2 09 3d
       -0.020799411 -0.000107525295 -0.021686044 0.033602603
0000c0 28 77 2b bd f7 58 56 bd d8 f4 cb bd 3a bb 2c 3c
       -0.041861683 -0.052330937 -0.099588096 0.010542685
0000d0 54 c1 58 3d 05 da 8b 3d 53 82 97 bd fc db 20 bd
       0.052918747 0.06828693 -0.07397904 -0.039272293
0000e0 bb a6 9d 3d 8f 57 f0 bc 52 73 1e be 4d b9 03 bc
       0.07697817 -0.029338626 -0.15473679 -0.008039785
0000f0 99 2d a8 bd 38 f4 cf bd 3f 4f 92 bc 5e 90 c6 bd
       -0.08211822 -0.10154003 -0.017860053 -0.096955046
000100 e2 21 50 bc 14 78 39 bd 2e 94 91 bd 55 f6 ad bd
       -0.012703391 -0.04528053 -0.07108341 -0.0849425
000110 29 ae 83 bd 9c ee 4e 3d ce f3 45 3b 69 4e b8 3c
       -0.06429703 0.050520524 0.0030205133 0.022498326
000120 cc 61 8b 3c b9 28 0c be 5f a3 0b be 57 bf 80 bd
       0.017014407 -0.1368741 -0.1363654 -0.06286495
000130 1d 5d 63 3d c1 ce 70 3c 70 d4 c0 bb 08 e6 84 bb
       0.05550872 0.0146977315 -0.0058846995 -0.004055742
000140 40 0a 4f 3c 93 c2 42 bd 87 7c e4 bc d6 b7 9c bd
       0.012636721 -0.04754884 -0.02789141 -0.076522514
000150 ef d3 a1 bc 62 17 80 bb b8 d3 2a 3d 60 35 3f bd
       -0.019754378 -0.0039090374 0.041705817 -0.04668176
000160 96 83 79 3d 5c 58 f0 bc 8c 0d f8 bd 03 0e 95 bd
       0.060916506 -0.029339008 -0.12111959 -0.07278063
000170 c2 6e 86 bd 3e c7 db bb e2 ef 95 3d 6f 5f 4b bd
       -0.06564094 -0.006707101 0.07321145 -0.04965156
000180 81 bb 92 bd 4c 92 8c bc c0 61 2f bc ae 35 3d 3d
       -0.0716467 -0.017159604 -0.010704458 0.04619377
000190 ef d6 e1 bc eb d1 39 bd 21 05 7d 3d 32 8d b5 bd
       -0.027568309 -0.04536621 0.06177247 -0.088648215
0001a0 c0 40 45 be e7 3f ac bd f1 b2 30 bc 09 81 75 3d
       -0.19262981 -0.08410626 -0.01078485 0.05993751
0001b0 88 77 30 3d be d6 3f 3d 0a 37 9f bb be ec a1 bd
       0.043082744 0.046835653 -0.004858856 -0.07906483
0001c0 ee 58 07 3d a0 b3 f3 bd 22 68 b4 bd 76 b8 41 bd
       0.033043794 -0.11899495 -0.08808924 -0.047295056
0001d0 87 91 71 3d 34 54 fc 3c da 48 0a bd 06 6f 90 bd
       0.058976676 0.03080187 -0.033760883 -0.07052426
0001e0 48 a4 2d 3c 06 43 83 bd e5 43 8e bd 3f 06 b3 bd
       0.01059825 -0.06409268 -0.069465436 -0.08741426
0001f0 dd af 58 bc 35 a7 88 3c f2 c8 6f bd 25 d0 31 bc
       -0.013225523 0.016681293 -0.058541246 -0.010852848
000200 9b 0c 04 be a0 c8 41 bd d6 7c d2 bb 4c b5 ba bd
       -0.12895434 -0.04731047 -0.006423573 -0.09116611
000210 40 fa c9 3d e0 89 a7 bc 52 e7 a5 bd 1a c7 08 bd
       0.098621845 -0.020451486 -0.081007615 -0.033393003
000220 7e 41 14 bd 83 b9 d4 bd a4 30 64 3d c0 c2 b3 bc
       -0.03619527 -0.10386946 0.05571045 -0.02194345
000230 7f bc 8e 3d 4f 02 4a bc 89 d1 09 be e2 0f 14 bd
       0.069695465 -0.012329652 -0.13458838 -0.03614796
000240 17 30 19 be 27 b8 1e bd 57 35 13 bd f8 83 10 3d
       -0.14959751 -0.03874984 -0.03593954 0.035282105
000250 44 41 3f 3d 40 f0 65 bd b5 43 1c be 96 73 1d 3d
       0.0466931 -0.056137323 -0.15260203 0.03844031
000260 13 6e 62 3c 69 5c b0 bc 5f 8d 15 3d a2 d7 3a bd
       0.013820189 -0.02152844 0.036511775 -0.0456158
000270 b6 46 0f 3b 6d 41 b5 bd 47 90 ab bd d0 f4 28 be
       0.0021862215 -0.088503696 -0.08377128 -0.16499639
000280 51 cd 2d bd 58 32 19 be c8 b2 83 3b ea 0a 5f 3c
       -0.042432133 -0.14960611 0.004019115 0.013613442
000290 0f 02 36 be b9 d0 3d 3d 58 e7 82 bd af a4 20 3d
       -0.17774223 0.04634163 -0.063917816 0.039219555
0002a0 be f9 37 be fd 81 87 bd a4 b4 a0 bd 45 01 c7 bd
       -0.17966363 -0.0661659 -0.078469545 -0.09717039
0002b0 84 bc a5 bd 72 74 c8 bc 9f d4 44 bd 23 82 5a 3d
       -0.08092597 -0.024469588 -0.048054334 0.053346764
0002c0 92 38 e5 bd d3 1d 77 bd e4 6a 26 3d cb b6 68 3d
       -0.111924306 -0.060331177 0.040629283 0.05681495
0002d0 8c 92 a3 3b 6c df 17 bd 7b 9f c9 bb 88 a4 51 bd
       0.004991835 -0.037078306 -0.0061530448 -0.0511823
0002e0 94 92 b1 bd 85 1a d5 bd 13 4a f6 3c ac b2 bb bb
       -0.08670536 -0.10405449 0.030064618 -0.0057280865
0002f0 ad bc e3 bd ab 80 1b bd 86 5a 90 bd 8e 91 df 3a
       -0.111199714 -0.037964504 -0.07048516 0.0017056928
000300 04 df 76 bd 73 ff 83 bd 7a 2e a9 3d 95 f0 27 bd
       -0.060271278 -0.064452074 0.08260818 -0.04100092
000310 eb fc 14 bd f6 06 69 bd 43 f0 b9 bc 3c f4 06 be
       -0.036374014 -0.056891404 -0.022697574 -0.13179106
000320 f5 4d cf bc 5e 8e 8d bd c5 fa cf bd 2a 2b 15 3d
       -0.025305727 -0.0691192 -0.10155252 0.036418118
000330 72 a4 9e bd a6 3c c0 bd 39 1b 14 3a 20 25 a9 3b
       -0.07746209 -0.09386568 0.00056498084 0.0051618963
000340 b4 68 fc bc a0 03 4e 3d 45 4d 2f 3d 2f a4 70 3d
       -0.030811645 0.050296426 0.0427983 0.058750328
000350 09 ed f4 bd 97 9c e0 3c 1b c1 27 3b 2e 34 06 3d
       -0.11959273 0.027418418 0.0025597278 0.032764606
000360 aa f2 96 bd 86 48 20 bd 4e 27 a0 b9 e3 af 3b bd
       -0.07370503 -0.039131664 -0.00030546862 -0.045822036
000370 0c c0 db bd a1 1a a6 bc 7a 55 a3 3d 7a b8 2e 3d
       -0.107299894 -0.02027637 0.07975288 0.0426564
000380 64 e7 7c bd 5c e2 6d b9 34 4e 07 bc 57 d2 ea bc
       -0.06174411 -0.00022686407 -0.008258391 -0.028664751
000390 48 70 26 bd 6d 9d 1d 3d c3 e3 ac bd 7f 6a 1e 3d
       -0.040634423 0.03848021 -0.084418796 0.03867578
0003a0 7c ad 58 be 03 58 cd bc 82 73 9e bd 18 3a c7 bd
       -0.21159929 -0.025066381 -0.07736875 -0.097278774
0003b0 de 67 35 3d 20 93 af bd ef b6 d7 3c e9 ff 1c 3d
       0.04428851 -0.08572984 0.026332347 0.038329992
0003c0 66 e5 ab bc 7b b5 5f be 0e 11 fb bc 42 d2 5d bd
       -0.02098341 -0.21846573 -0.03064778 -0.054155596
0003d0 e9 b0 f7 bb 9e 2c dc bd 66 c9 85 3d 49 b1 53 bc
       -0.007558931 -0.107506976 0.06532554 -0.012920686
0003e0 72 d2 f4 bb 8d 18 13 be c1 25 47 3d d9 91 d5 3b
       -0.007471376 -0.14364834 0.04861999 0.0065176305
0003f0 d1 d6 2a 3c eb 9c f4 3c b2 91 2d 3d e1 d8 c0 bd
       0.010427193 0.02985998 0.042375274 -0.09416366

bias f4 [128]
000000 c1 7e 82 bd 1e 9e 2a bd c7 3c 05 be 99 3c f8 bd
       -0.06371833 -0.0416547 -0.13011466 -0.12120933
000010 2e 5f 1a be 39 21 7c 3b 50 32 12 be 89 80 3d 3c
       -0.1507537 0.003847195 -0.14277005 0.01156629
000020 9e a9 f5 3d b9 9f 64 be b6 27 90 3d 05 51 43 bd
       0.119952425 -0.22326554 0.07038824 -0.047684688
000030 e2 b6 e1 bb 44 29 87 3d 6c ae 9f bd 58 7e 00 bb
       -0.0068882564 0.06599668 -0.0779694 -0.0019606557
000040 2f fd 4e 3d a2 d5 db 3c 40 4e f7 3d 07 b6 fd bd
       0.050534423 0.026835267 0.12075472 -0.123882346
000050 ea d3 d2 bd 23 fa ca 3d fa 88 48 3d 15 5c 13 3d
       -0.10294326 0.09910991 0.048958756 0.03597649
000060 94 ae be bd 45 50 19 3e ac bb 3e 3e af 8b 11 3c
       -0.09310642 0.14972027 0.18626279 0.008883401
000070 03 ae b4 bd 03 ec b1 3b 4d b1 e8 bd 10 d0 c8 3c
       -0.088222526 0.005429746 -0.113619424 0.024513274
000080 fd 8c 35 be 9e 0b 12 3d e7 c9 32 3e 03 41 70 3d
       -0.17729564 0.03565561 0.17459832 0.05865575
000090 79 d6 9d 3d 07 43 1c 3d 11 1b fb 3c 9c 5a 3c 3d
       0.07706923 0.03814986 0.030652555 0.04598485
0000a0 2e a3 28 be 58 bb f8 bd d6 66 23 be 7b 18 76 bd
       -0.16468498 -0.12145108 -0.15957198 -0.06008194
0000b0 61 fc c8 bc 58 40 8a 3d 14 8b fd 3d 0b 52 3c 3e
       -0.024534406 0.06750554 0.12380043 0.18390672
0000c0 76 79 3a 3e e4 0b 2e 3b b4 10 97 3d 81 31 f6 bd
       0.18210396 0.002655738 0.07376233 -0.12021161
0000d0 35 79 aa bd 11 58 e7 bd a6 35 89 3e 76 c9 d1 3d
       -0.083239 -0.11296094 0.26798743 0.10243504
0000e0 b7 b5 f5 bd 18 55 9a 3d 68 f2 f2 3c 2b 03 e1 bd
       -0.1199755 0.075357616 0.029656604 -0.10986932
0000f0 b9 d9 9f 3d 13 9f 92 3d 4b 74 0f bd b1 f0 8d bd
       0.07805199 0.07159247 -0.035023015 -0.06930674
000100 cf 2c 00 bd f9 94 a8 bc cc d8 fd 3d 3b 94 60 be
       -0.031292733 -0.020578848 0.12394866 -0.21931545
000110 a0 61 14 be a9 ef a7 3e 30 42 98 3d 4f e0 8f bd
       -0.14490366 0.32800034 0.07434499 -0.07025205
000120 66 b3 f9 3a 75 e2 42 be fc 26 60 3d f6 13 29 bc
       0.0019050657 -0.19031699 0.05472468 -0.0103197
000130 28 08 48 be bd b0 b3 3d db db 39 be 77 7c 4f bd
       -0.19534361 0.087739445 -0.18150274 -0.05065581
000140 81 96 c1 3c b7 cf 07 bd b3 79 16 bd 90 b6 a3 bc
       0.023631336 -0.033157077 -0.036737155 -0.019984514
000150 3f 40 30 bd 80 0d 72 bd 51 8a 78 bd 25 bc 0b 3e
       -0.04303002 -0.059094906 -0.060678784 0.1364599
000160 24 2d ec 3d 36 06 f9 bd 95 ea a2 3a 08 36 09 3e
       0.115320474 -0.12159388 0.001242953 0.13399518
000170 9c d8 53 3e 13 cf 17 be a0 2e 01 3c 39 24 ca 3d
       0.20688099 -0.14825086 0.007884651 0.0987019
000180 69 89 06 be 8e fe 86 3d 3a 2d 09 3c 41 8a 3e 3e
       -0.13138355 0.06591521 0.008372599 0.18607427
000190 a8 dc d6 3d 1d 20 fc bd da 00 7d 3d 24 f6 23 3e
       0.104913056 -0.123108126 0.06176839 0.16011864
0001a0 56 68 00 3e f8 d2 05 be 52 3f a5 3d 67 37 41 bd
       0.12539801 -0.1306876 0.08068718 -0.047171976
0001b0 bd bb 09 3d 87 33 1a be de cf 15 be e5 93 70 3b
       0.033626307 -0.15058719 -0.14630076 0.0036709246
0001c0 41 56 36 bd a3 09 b7 bc f4 42 71 bd c5 2b a3 3c
       -0.044515852 -0.022343462 -0.058901742 0.019918332
0001d0 a0 5d 5b bc 4e 84 24 be 6d 56 b0 3d c9 bc e4 3d
       -0.013389021 -0.16066095 0.086102344 0.111688204
0001e0 b5 0a 87 bd 22 89 b9 3c fa f4 21 bd a4 78 3a 3d
       -0.06593839 0.022648398 -0.03954027 0.045525208
0001f0 bd d2 08 bd 0a e2 23 bd 50 ed c5 bd 5b de 8a 3d
       -0.0334041 -0.04001049 -0.096644044 0.06780692

weight f4 [2, 128]
000000 73 dd 12 3e db 4f aa 3c a0 53 8a 3d 58 71 06 bd
       0.14342289 0.020790031 0.067542315 -0.032822937
000010 cf ce 09 3d bf fa b2 bb d5 6d cd 3c a1 4f 85 bc
       0.033644494 -0.00546202 0.025076786 -0.016273322
000020 a1 73 0f 3e 7a 4b af bd 98 a1 b0 3d b9 49 27 bd
       0.14008953 -0.08559318 0.086245716 -0.04084179
000030 c6 76 fb bc 25 9b 72 bc 3f 1a 4b 3d 44 04 8e 3c
       -0.030696284 -0.014807497 0.049585577 0.017336018
000040 30 8f e0 3d 0e 94 59 3c 5f e9 83 3d f1 fd bd 3a
       0.10964811 0.013279928 0.064409964 0.0014495236
000050 de 70 30 bd a2 b2 c9 bd ce 27 40 3d 03 79 ed bd
       -0.04307639 -0.09848525 0.04691296 -0.11595347
000060 ac 24 ca bc ec ca 0e be 25 3a 0d 3e d1 6b 63 bd
       -0.02467569 -0.13944596 0.13791712 -0.055522744
000070 3e 7a 06 bd a5 6b 8c 3c 78 fd 11 bd a5 7d 0b 3e
       -0.032831423 0.017141173 -0.035642117 0.13622148
000080 9d d5 8e 3c 74 86 3d 3d 08 eb f7 bd 01 fe c5 3d
       0.017435843 0.046270803 -0.121053755 0.09667588
000090 55 0e b8 3d 77 5f c0 bb 20 05 fb 3c 7b cd 66 3d
       0.089871086 -0.0058707553 0.030642092 0.056348305
0000a0 ba 4f f5 3c 2b 9c 91 bd 6a 79 53 bd b0 41 c6 bc
       0.029945243 -0.07109865 -0.05162946 -0.024201244
0000b0 01 9c fc 3c 69 f8 aa 3d a4 8d f8 bc 62 93 12 be
       0.030836107 0.08348162 -0.030340977 -0.14314035
0000c0 82 88 30 be 2c ac fe 3d 20 33 05 be f0 2c 50 bd
       -0.17239574 0.12435183 -0.13007784 -0.050824106
0000d0 80 a5 01 bd c6 8e 24 3d 02 11 be bd 6f 2c a5 3b
       -0.031651974 0.04017522 -0.09280588 0.0050406973
0000e0 10 02 0b bc da 69 83 3d 78 08 8a 3c b8 5b 55 3c
       -0.008484378 0.06416674 0.016849741 0.013022356
0000f0 ef cd 6d 3d 56 3e 80 3d 8f aa ea 3d 2e 72 86 bd
       0.05805772 0.0626189 0.11458313 -0.06564747
000100 58 7f 99 3d 38 9e 5c ba bd bb 12 3e 85 7c 79 bd
       0.07494992 -0.00084159104 0.14329429 -0.060909767
000110 9f 63 14 3d 8a 4a 28 be 99 0b 41 3d 72 c4 92 3d
       0.03622782 -0.16434684 0.0471302 0.07166375
000120 ed df 15 3d 3a 04 63 3c f0 25 e6 3d 1e 59 2b bd
       0.036590505 0.013855988 0.11237705 -0.041833036
000130 7c 4b a5 bd 75 83 c6 3a dc 7e 11 3d 6e 3d 90 3d
       -0.08071038 0.0015145378 0.035521373 0.07042967
000140 be 9d a6 3d 8b c1 4f 3d 4f 8c a7 3d 75 4a aa bd
       0.08135556 0.050721686 0.081810586 -0.08314983
000150 eb 8a ea 3d c5 d7 b4 3d ae 29 a0 3d cc 73 c6 bd
       0.11452278 0.08830217 0.0782045 -0.09690055
000160 02 d2 ed 3d 78 05 ad 3d 8e a0 cd 3c 65 d3 ed 3d
       0.116123214 0.08448309 0.025100973 0.11612586
000170 91 a5 2e 3e b8 95 05 3d cf 08 46 3d 1b 24 e8 bd
       0.17055346 0.032613486 0.048348244 -0.113350116
000180 7a 7c ab bd 12 b2 09 be e6 1e 08 bc 1a 48 02 be
       -0.083733514 -0.13446835 -0.008308148 -0.12722817
000190 bf 65 17 be 4b ba 40 3d 5d a1 9d 3d e0 be 00 be
       -0.14784907 0.047052663 0.07696793 -0.12572813
0001a0 60 64 c0 3d cd 6b b6 3c 18 7f 0a be 1d bc 7f 3c
       0.09394145 0.0222682 -0.13525045 0.015608815
0001b0 78 81 14 3e 35 3e ad bc 1b f5 62 3c f3 8c ff 3c
       0.14502513 -0.021147827 0.013852383 0.03119514
0001c0 2d 6b 60 3d fe e2 7a 3d 9c 0e b3 bd 38 15 02 bd
       0.05478971 0.061251633 -0.08743021 -0.031758517
0001d0 e1 49 78 3d dc f2 19 3d 2a cd 0f 3e a5 6f 8a 3d
       0.06061733 0.037585124 0.14043108 0.06759576
0001e0 9e 2c 30 3c f1 8d 03 be 36 08 a2 3d bb 21 c1 bb
       0.010752825 -0.12847115 0.07911722 -0.0058939136
0001f0 0f f9 02 3e 2f 3e 68 3d 12 37 9f 3d 80 08 03 3d
       0.12790321 0.056699928 0.07774176 0.031990528
000200 eb 17 34 ba c6 2c 9a 3d c3 be 3b 3d a7 02 4a 3d
       -0.0006870019 0.07528071 0.04583622 0.049318936
000210 b0 ab 10 bd bf e0 d7 3d f1 c7 75 bd aa 89 87 bd
       -0.035319984 0.10540914 -0.060005132 -0.06618054
000220 6d e0 f3 3d e0 ca 49 bd bf 40 bd 3d 01 4a 9f 3d
       0.1190804 -0.049265742 0.09240865 0.07777787
000230 3f 72 35 3d 56 32 9e 3d c7 d3 29 bc 04 f0 1e bd
       0.044298407 0.077244446 -0.010365433 -0.038803115
000240 13 a5 a0 bd f0 b3 b9 3b bb 5b e4 3d 3d 42 c3 3c
       -0.078439854 0.005667202 0.11150309 0.023835296
000250 37 04 62 3d 4c bb 9c bd ae 70 79 3d 9f 2b ab bd
       0.0551798 -0.076529115 0.060898475 -0.083579294
000260 d7 04 d5 bc 2a 60 ee bd 22 94 34 3e de 93 5a 3d
       -0.026003284 -0.116394356 0.17634633 0.053363673
000270 13 55 6d 3d 69 17 6b bc 59 5d 3f 3d 57 63 ae 3d
       0.05794246 -0.014348843 0.046719883 0.08515041
000280 09 60 46 3d 20 4e 08 3e 52 c8 d7 bd df b2 c3 3c
       0.04843143 0.13311052 -0.10536255 0.023889003
000290 51 40 bb bb 2c 09 26 3d c2 4e d5 3d 39 8c 23 bd
       -0.005714454 0.04053609 0.104154125 -0.03992865
0002a0 e3 62 a0 bd 72 49 c0 bd 54 4c b2 bc d6 31 ec 3b
       -0.07831361 -0.093890086 -0.021764912 0.0072080893
0002b0 1e f9 d0 39 c5 9b 7b 3b 51 81 b6 bd 1e 4f 2f be
       0.00039858458 0.0038392406 -0.08911384 -0.17120025
0002c0 9f f6 50 be 93 31 b3 3b 0b 39 9a bd 19 e8 cb bd
       -0.20406578 0.005468556 -0.07530411 -0.099563785
0002d0 72 66 94 3d 9e 9e 6a bc e7 0a 08 be 47 7f e3 3d
       0.072461024 -0.014320044 -0.13285409 0.111082606
0002e0 f5 ef 85 bc 82 d3 db 3d 32 ca d4 3d cf f3 b5 bc
       -0.016349772 0.10733701 0.10390128 -0.022210984
0002f0 6a 74 c4 3d f4 32 38 3c a0 ee ba 3c 40 3f 12 bd
       0.09592517 0.011242617 0.022818863 -0.03570485
000300 44 76 5b 3d 28 5c 8b 3d 65 3c 92 3d 34 41 4a bd
       0.053579584 0.06804687 0.071404256 -0.04937859
000310 8f 39 3f bd 2a a7 22 be c0 aa c5 3d 99 af 53 bd
       -0.04668575 -0.1588408 0.096517086 -0.051681135
000320 c7 64 9b 3d 7d 25 e5 3b b5 b6 90 3a c1 50 b8 bc
       0.07587581 0.0069929943 0.0011040779 -0.022499444
000330 9a cb 1a bd b2 ea 93 3d 41 2a 50 3d da 1f 0a 3c
       -0.037791826 0.07222499 0.050821546 0.008430446
000340 a9 96 46 3d 30 85 58 bd 02 7f 56 3b 36 d8 a7 bc
       0.048483524 -0.052861392 0.003272951 -0.02048884
000350 af 3a db 3d 71 bb 9e bd b4 8d 68 bd 8b 14 b8 bd
       0.107045524 -0.07750595 -0.056775764 -0.08988293
000360 75 18 10 3e 27 79 34 3d c4 17 03 3e 9d 42 6e 3d
       0.1407183 0.044060852 0.12802035 0.058168996
000370 1e 8e df 3d 06 5a 83 3d 9f bf 01 bd b5 0b 93 3c
       0.109157786 0.06413655 -0.031676885 0.017949918
000380 01 1d 4e bd 73 aa 1e be 41 a7 b9 3d 78 81 ea bd
       -0.05032063 -0.15494709 0.09065104 -0.114504755
000390 ba 04 15 be b0 35 1f bc 7e f0 72 3d 83 f0 d0 bd
       -0.14552584 -0.00971739 0.059311382 -0.10202124
0003a0 ca d4 7d 3d 61 5e 8d 3d be 51 e7 bd ab f4 54 bc
       0.06197051 0.06902767 -0.11294888 -0.0129977865
0003b0 0c 0b 09 3e b5 12 f5 3c a5 2e 92 bd f4 8c 8f 3d
       0.1338312 0.029916147 -0.07137803 0.070093066
0003c0 b8 f1 ac 3d a2 f2 28 3d 65 f0 92 bc d9 7f 46 3d
       0.08444542 0.041247018 -0.017936895 0.04846177
0003d0 05 7b 1f 3d 35 ab 3c 3d 75 73 06 3e dc 61 d7 3d
       0.03893568 0.046061713 0.13129981 0.10516712
0003e0 52 fc 4c 3d 19 1e bf bd 49 16 88 3d ff 41 bc 3d
       0.05004532 -0.093319125 0.066448756 0.09192275
0003f0 b0 96 b1 3d ed d8 8e 3d ac 18 69 3d 57 b0 a5 3d
       0.086713195 0.06974969 0.056908295 0.08090275

bias f4 [2]
000000 9f 7d b8 3d 45 23 73 3d
       0.09008335 0.059359808
